concrete_model.pth (torch, 16020 bytes, 7 tensors)

fc1.weight f4 [64, 8]
0.025245467 0.19176653 -0.11300356 0.49775535 -0.28966406 0.015270658 -0.15301637 0.2958264
0.2818514 -0.36747965 0.34352735 0.07912187 0.24726945 0.14629136 0.10355848 0.043694723
0.2241846 0.20745459 -0.23252723 0.01124958 -0.14123613 -0.03790413 -0.21142715 0.26855624
-0.32745594 -0.20809658 -0.13650061 -0.31257907 0.093032084 -0.27406073 0.3717909 -0.5004506
0.35040793 0.073450565 -0.046794392 0.23044336 0.17461504 0.14865242 0.12527001 -0.26235607
0.22347371 -0.0957648 0.05180347 0.2745995 0.3235029 -0.16955303 0.25940856 -0.0258384
0.17119683 -0.18960044 -0.6300942 -0.027805526 -0.46121126 0.3030241 0.2656904 0.11347739
0.14926563 -0.0025306973 0.25291532 -0.2677168 -0.06517054 -0.279294 0.2438153 0.071701415
-0.011217924 -0.054018598 0.3089236 -0.25906017 -0.30265325 -0.07433222 0.44792736 0.11892862
0.36375833 -0.18353099 -0.34291798 -0.38287875 -0.18445347 0.21938299 -0.053423643 0.3178792
-0.13940573 -0.22411172 0.1549495 -0.23722099 0.22269233 -0.16894725 0.116508625 -0.35867834
-0.19661549 0.10038566 0.1241123 -0.07296222 0.26471746 0.22718321 -0.23557167 -0.37178472
0.31568962 0.034932386 0.019516917 -0.35690328 -0.23010972 0.060224753 -0.01133982 -0.13572502
0.12310517 -0.32313308 -0.41945875 -0.19459945 -0.34047702 -0.27377495 0.28460795 -0.021598803
0.116439536 -0.21823446 -0.18530168 -0.14584339 0.12185134 -0.3585614 -0.20367528 -0.34294254
0.019001063 -0.083544 -0.049574096 -0.21600167 -0.26872715 -0.20338872 -0.09995655 -0.53934264
0.4057544 -0.108881116 0.39877582 0.12872581 -0.33138308 0.23824489 -0.101651065 -0.18754594
-0.250104 -0.42990613 -0.043477852 -0.0025638018 0.07500325 -0.31520548 0.2454999 -0.40134153
-0.06701184 0.1556815 0.10673322 0.2755662 0.38556907 -0.2457653 0.017562008 -0.19734854
0.013791593 -0.16336104 0.22449367 -0.282754 0.24836525 0.14563195 -0.112982064 -0.27806094
0.38440296 0.07648633 0.103723586 -0.41924155 0.15006086 0.031504918 -0.13471004 0.432993
0.10418373 -0.17692758 -0.26817602 -0.119218156 0.22882394 -0.14688924 -0.12313555 0.039345864
-0.34430274 0.23257984 0.29541245 -0.33217838 0.028022347 0.30267948 0.14205395 0.1436761
0.25694165 0.2141272 0.17068993 -0.15780982 -0.028215924 0.077056445 -0.06587414 -0.0052824663
0.28284106 0.40858743 -0.19323078 -0.15843397 -0.005796388 -0.018971974 0.115197375 -0.011300402
-0.40622377 -0.04815317 0.21898828 0.11037013 0.08613234 -0.16115583 -0.22174622 -0.40707058
-0.28660765 0.17001857 0.017261656 0.3349596 -0.71921784 -0.43037796 0.13054658 0.3170195
0.07078776 0.005805642 0.18942763 -0.10141748 -0.22602727 0.24902241 -0.1576836 -0.23615628
-0.46212217 0.059269313 0.1415043 0.2925977 -0.24879271 -0.36095223 -0.30586892 0.2197062
0.1423208 0.28113878 0.23223343 0.102315344 0.03978705 -0.33697116 -0.2180527 -0.313963
0.18741727 -0.17197567 -0.20033771 -0.16598757 -0.14623252 -0.27791733 -0.20417911 0.13817286
-0.04623344 0.22843088 -0.07665832 -0.3346221 0.005118019 -0.31590566 -0.14369033 -0.5547518
00000000: 95cf ce3c 725e 443e 696e e7bd cad9 fe3e
00000010: d94e 94be c831 7a3c 53b0 1cbe 8f76 973e
00000020: d44e 903e 4b26 bcbe d1e2 af3e a60a a23d
00000030: 3434 7d3e 67cd 153e 7816 d43d 3df9 323d
00000040: a690 653e fa6e 543e 9e1b 6ebe 2950 383c
00000050: 34a0 10be 5c41 1bbd 5c80 58be 3480 893e
00000060: 4ea8 a7be 4517 55be d1c6 0bbe 5d0a a0be
00000070: 9b87 be3d b051 8cbe 605b be3e 881d 00bf
00000080: ab68 b33e 406d 963d 7aab 3fbd 58f9 6b3e
00000090: 49ce 323e 5738 183e c846 003e 8953 86be
000000a0: 4bd6 643e 5620 c4bd e02f 543d 4e98 8c3e
000000b0: 2ca2 a53e 4f9f 2dbe 33d1 843e 0dab d3bc
000000c0: 394e 2f3e 9e26 42be da4d 21bf 6ac8 e3bc
000000d0: e223 ecbe fa25 9b3e 9208 883e d566 e83d
000000e0: 17d9 183e 0eda 25bb 1e7e 813e 2d12 89be
000000f0: 2278 85bd a0ff 8ebe b8aa 793e 31d8 923d
00000100: 62cb 37bc 9b42 5dbd 3c2b 9e3e 89a3 84be
00000110: 5ef5 9abe 7e3b 98bd bc56 e53e d990 f33d
00000120: 883e ba3e 8cef 3bbe f292 afbe af08 c4be
00000130: 5fe1 3cbe efa5 603e c0d2 5abd 10c1 a23e
00000140: 60c0 0ebe 8b7d 65be 15ab 1e3e 0fea 72be
00000150: 7509 643e 8200 2dbe 139c ee3d b0a4 b7be
00000160: 9255 49be ff96 cd3d 972e fe3d 376d 95bd
00000170: 0c89 873e b7a2 683e b339 71be 915a bebe
00000180: 12a2 a13e 4315 0f3d f1e1 9f3c 07bc b6be
00000190: e2a1 6bbe 3bae 763d a7ca 39bc 80fb 0abe
000001a0: 901e fc3d b371 a5be 4cc3 d6be 1445 47be
000001b0: 0153 aebe 3b2c 8cbe 22b8 913e f9ef b0bc
000001c0: da77 ee3d db78 5fbe b9bf 3dbe f857 15be
000001d0: 328d f93d 5c95 b7be 4190 50be 2a96 afbe
000001e0: 1ea8 9b3c 1e19 abbd 350e 4bbd 8b2f 5dbe
000001f0: 9b96 89be 2245 50be 05b6 ccbd 5c12 0abf
00000200: 0abf cf3e 10fd debd 582c cc3e b3d0 033e
00000210: 0bab a9be 78f6 733e 6f2e d0bd 0b0c 40be
00000220: a20d 80be a81c dcbe d515 32bd 7505 28bb
00000230: 4e9b 993d 9d62 a1be 5364 7b3e a37c cdbe
00000240: 813d 89bd f96a 1f3e f296 da3d 0317 8d3e
00000250: 4f69 c53e e6a9 7bbe 33de 8f3c bc15 4abe
00000260: 22f6 613c 1e48 27be abe1 653e 22c5 90be
00000270: 7653 7e3e 8b20 153e 2463 e7bd 015e 8ebe
00000280: 77d0 c43e dda4 9c3d 086d d43d d4a6 d6be
00000290: 8ea9 193e 4d0b 013d 6ef1 09be 42b1 dd3e
000002a0: 485e d53d 812c 35be 5e4e 89be a628 f4bd
000002b0: d350 6a3e 226a 16be 7e2e fcbd 2129 213d
000002c0: 7348 b0be 6929 6e3e 4d40 973e 4913 aabe
000002d0: 1f8f e53c cef8 9a3e 9776 113e d41f 133e
000002e0: db8d 833e 2944 5b3e 57c9 2e3e e698 21be
000002f0: 1525 e7bc c5cf 9d3d 05e9 86bd 8a18 adbb
00000300: 8bd0 903e 5f32 d13e 4ade 45be 843c 22be
00000310: a0ef bdbb 1d6b 9bbc 9aec eb3d 5225 39bc
00000320: 90fc cfbe 423c 45bd 773e 603e bc09 e23d
00000330: 2766 b03d 0906 25be 7111 63be 8e6b d0be
00000340: 3dbe 92be 5919 2e3e 5168 8d3c d37f ab3e
00000350: a91e 38bf 805a dcbe 01ae 053e 6150 a23e
00000360: 2cf9 903d 413d be3b 51f9 413e f8b3 cfbd
00000370: b173 67be bbff 7e3e cf77 21be f4d2 71be
00000380: 479b ecbe 61c4 723d 81e6 103e 5ecf 953e
00000390: 84c3 7ebe bbce b8be da9a 9cbe a9fa 603e
000003a0: 8bbc 113e 6cf1 8f3e 9ace 6d3e b58a d13d
000003b0: bff7 223d 7c87 acbe 3549 5fbe c2bf a0be
000003c0: 50ea 3f3e 641a 30be 5425 4dbe a5f8 29be
000003d0: fabd 15be 2e4b 8ebe 5414 51be 307d 0d3e
000003e0: 475f 3dbd c9e9 693e 0aff 9cbd 9753 abbe
000003f0: 0eb5 a73b 63be a1be 8f23 13be 3704 0ebf

fc1.bias f4 [64]
-0.017012509 -0.32451418 -0.2358747 -0.1840333 0.2830857 -0.2506968 0.23627697 0.117623575
0.101484545 0.29335395 -0.03904729 0.24874903 0.2664194 -0.4096047 0.058186226 0.05283505
0.08297687 0.01395926 0.108839296 -0.286757 -0.008704842 0.36210877 0.18850562 0.054866824
-0.181738 -0.08924571 -0.11550209 0.16859181 -0.2811325 -0.077605985 -0.015279393 0.11183686
0.50049436 -0.043076556 0.15711485 0.43522912 0.30050567 -0.09797006 -0.052648496 0.1835126
-0.12780261 0.15693955 -0.019922512 -0.19368695 0.23217435 0.14031109 0.15195379 0.46301422
0.18315393 0.44574818 0.13733922 -0.2525516 -0.2578445 -0.29759333 -0.39246824 -0.11666945
-0.31370133 -0.3447381 -0.16604206 -0.49533078 -0.21857932 0.26498094 0.38449314 -0.12386202
00000000: d15d 8bbc b926 a6be 2389 71be 3a73 3cbe
00000010: 9cf0 903e 555b 80be 97f2 713e a1e4 f03d
00000020: 21d7 cf3d 7d32 963e 0df0 1fbd 11b8 7e3e
00000030: 2068 883e b5b7 d1be ae54 6e3d 9169 583d
00000040: c7ef a93d 61b5 643c 23e7 de3d d0d1 92be
00000050: c19e 0ebc 5266 b93e 9e07 413e 09bc 603d
00000060: 8719 3abe 74c6 b6bd 5c8c ecbd 55a3 2c3e
00000070: 99f0 8fbe e3ef 9ebd 6b56 7abc b90a e53d
00000080: 6620 003f 0b71 30bd b7e2 203e 5ad6 de3e
00000090: e1db 993e 87a4 c8bd f3a5 57bd baea 3b3e
000000a0: b0de 02be c3b4 203e 8934 a3bc df55 46be
000000b0: 1dbf 6d3e b6ad 0f3e c699 1b3e 3310 ed3e
000000c0: b48c 3b3e 1b39 e43e a7a2 0c3e 714e 81be
000000d0: 3204 84be 275e 98be 99f1 c8be 65f0 eebd
000000e0: 769d a0be 8381 b0be ee06 2abe ff9b fdbe
000000f0: 42d3 5fbe 95ab 873e 49dc c43e 5fab fdbd

fc2.weight f4 [32, 64]
-0.036359847 0.06674416 -0.06167136 -0.065108284 0.07701619 -0.10891271 0.009279959 0.10441761
0.015430674 0.02798862 -0.078804076 -0.007729813 0.0008678615 0.030679286 0.04856825 0.10261097
-0.10141703 -0.0022581762 -0.062454537 -0.10488826 -0.016014455 -0.11002961 0.081232086 0.008472757
-0.06736976 0.059317626 -0.11830349 -0.054355156 -0.024352342 -0.106218785 -0.07948604 -0.026407324
0.09484558 0.12070678 0.073527634 -0.080645524 -0.0877743 0.103082515 0.04421468 -0.002684297
0.016916513 -0.10646706 -0.04173568 0.114322014 -0.030829027 -0.006270513 -0.109796315 -0.07593113
-0.0025524497 -0.08365009 -0.015501201 0.044865564 -0.12227216 0.031121688 -0.08265102 -0.061006382
0.041983787 0.093385085 -0.040157262 -0.051321134 -0.11302948 -0.06445721 -0.11545353 -0.028608814
0.016128806 -0.14404525 0.097330876 0.1562222 -0.052712046 0.006287132 0.015015025 0.05296272
-0.02455005 0.018623896 0.12421655 -0.08076566 0.13892098 0.14897169 0.061705492 0.20940728
-0.03916838 -0.015434767 0.027190711 0.092054 -0.043455083 0.078839526 -0.19180624 0.024570558
0.07795031 0.0025106291 0.039727338 -0.028939134 0.06904742 -0.034727737 0.034353264 0.14651246
0.16417024 0.118088804 -0.03629562 0.08247782 0.039762944 0.045705352 0.06501857 -0.072391674
0.09879183 0.047041845 0.0008244556 0.10431308 0.03380464 0.19817093 -0.12527083 0.019409204
-0.06250147 -0.029394627 0.06783642 0.16111563 0.108446866 0.14804149 0.048235808 0.1424436
0.15927741 0.13965912 -0.05291986 0.12753475 0.05578735 0.012521928 -0.00036018083 -0.044282105
0.07283446 -0.061700027 0.03579898 -0.038338855 -0.07677833 -0.014263685 0.15688454 0.039591573
0.13675007 -0.073554635 0.059913013 0.06916866 0.088355534 -0.20386012 -0.005228278 -0.07933517
0.027856402 0.033218276 0.021399856 0.050726805 -0.04998145 0.081933424 0.07862768 -0.053692885
-0.06110643 -0.100631535 0.13040672 -0.07226138 -0.08221443 0.029342595 0.066116095 0.059032153
-0.060850378 -0.07692608 0.03731096 0.18185218 0.11050741 -0.09985611 -0.037889574 0.13764966
-0.060305696 -0.044551075 0.014610215 -0.14228633 -0.0798419 0.052041095 0.06881141 0.097911365
-0.008173714 0.07679988 0.09755897 -0.09484373 -0.040071324 0.12495516 -0.10399185 0.12142197
-0.06459456 -0.11045968 0.051231965 -0.0894963 -0.07667174 0.045802236 0.10974411 -0.13665773
-0.04781799 0.19151057 -0.013237173 -0.03818151 -0.0790379 -0.137653 0.12893042 -0.038680032
-0.02728438 0.0010967188 -0.013212731 -0.020832183 0.029136578 -0.1804275 0.04806039 -0.009369743
-0.026592838 -0.13463454 0.07804273 -0.005639213 -0.10322219 0.14128579 0.03953415 0.16138817
0.13064872 -0.095639415 0.11707353 -0.08542435 -0.035312176 -0.029607926 -0.1015904 0.13227952
0.03735203 0.10395566 -0.083492905 0.12689045 -0.00757187 -0.19620368 -0.04698191 0.13450392
0.1461364 -0.032298442 -0.078577496 -0.021195956 -0.0064023267 0.01680879 0.12734088 0.055298377
0.11876946 0.19132729 -0.027263414 0.07407755 0.0014100674 0.15759918 -0.09297089 -0.057670467
-0.075385705 -0.015126062 0.107888564 -0.12106212 0.10688686 -0.081307694 0.17096478 -0.027150514
00000000: 10ee 14bd 2ab1 883d 1c9b 7cbd 7e57 85bd
00000010: aaba 9d3d a00d dfbd f80a 183c e6d8 d53d
00000020: f0d0 7c3c 6448 e53c 0864 a1bd 5f4a fdbb
00000030: 3381 633a 2053 fb3c 80ef 463d b325 d23d
00000040: bbb3 cfbd e9fd 13bb 54d0 7fbd a8cf d6bd
00000050: bf30 83bc 3457 e1bd 025d a63d 52d1 0a3c
00000060: 28f9 89bd 0af7 723d 1a49 f2bd 83a3 5ebd
00000070: 907e c7bc 3c89 d9bd 94c9 a2bd 2c54 d8bc
00000080: 663e c23d 1e35 f73d a895 963d 7b29 a5bd
00000090: 03c3 b3bd ed1c d33d 741a 353d 08eb 2fbb
000000a0: 8094 8a3c 670b dabd 08f3 2abd a921 ea3d
000000b0: 288d fcbc e078 cdbb e4dc e0bd c881 9bbd
000000c0: 0047 27bb bd50 abbd c0f8 7dbc f4c4 373d
000000d0: d469 fabd e9f2 fe3c f044 a9bd d4e1 79bd
000000e0: 31f7 2b3d ae40 bf3d f17b 24bd 1c36 52bd
000000f0: 007c e7bd 2402 84bd e672 ecbd 085d eabc
00000100: 8f20 843c 9980 13be 6955 c73d b6f8 1f3e
00000110: 96e8 57bd 4904 ce3b 9401 763c 70ef 583d
00000120: 301d c9bc 2491 983c 3f65 fe3d 7768 a5bd
00000130: 4d41 0e3e 098c 183e e6be 7c3d dd6e 563e
00000140: 066f 20bd 1be2 7cbc 0ebf de3c cf86 bc3d
00000150: f5fd 31bd 9e76 a13d db68 44be 3248 c93c
00000160: 6aa4 9f3d 5e89 243b 22b9 223d c311 edbc
00000170: bc68 8d3d ac3e 0ebd 02b6 0c3d 5d07 163e
00000180: 3e1c 283e 8bd8 f13d b7aa 14bd 22ea a83d
00000190: 78de 223d 8935 3b3d 7528 853d 1642 94bd
000001a0: 5f53 ca3d f3ae 403d 4720 583a 19a2 d53d
000001b0: bc76 0a3d 52ed 4a3e ff46 00be 0d00 9f3c
000001c0: c500 80bd 00cd f0bc d2ed 8a3d 7ffb 243e
000001d0: 6419 de3d 3098 173e e992 453d bcdc 113e
000001e0: 9e19 233e cd02 0f3e 7fc2 58bd 7898 023e
000001f0: 4781 643d c628 4d3c a7d6 bcb9 2761 35bd
00000200: 3c2a 953d 2bb9 7cbd f4a1 123d 3409 1dbd
00000210: f53d 9dbd 3bb2 69bc 57a6 203e c62a 223d
00000220: 3608 0c3e d0a3 96bd 5967 753d 4ca8 8d3d
00000230: bff3 b43d b5c0 50be fa51 abbb 7a7a a2bd
00000240: 1c33 e43c e30f 083d c04e af3c e9c6 4f3d
00000250: 59b9 4cbd b6cc a73d 8d07 a13d 12ed 5bbd
00000260: bc4a 7abd e817 cebd 5789 053e c6fd 93bd
00000270: 0a60 a8bd e25f f03c e067 873d b3cb 713d
00000280: 3f3e 79bd 6c8b 9dbd 61d3 183d 7537 3a3e
00000290: b551 e23d 5c81 ccbd 1932 1bbd 08f4 0c3e
000002a0: 1b03 77bd 307b 36bd af5f 6f3c 82b3 11be
000002b0: 2684 a3bd 0b29 553d ffec 8c3d c185 c83d
000002c0: 0beb 05bc 4149 9d3d ffcc c73d 6e3d c2bd
000002d0: d421 24bd 7ee8 ff3d aef9 d4bd 15ac f83d
000002e0: 274a 84bd af38 e2bd 9cd8 513d d649 b7bd
000002f0: 1306 9dbd 209b 3b3d 85c1 e03d 01f0 0bbe
00000300: ccdc 43bd 591b 443e bae0 58bc 3764 1cbd
00000310: 9fde a1bd e8f4 0cbe 5606 043e f46e 1ebd
00000320: 7e83 dfbc c7bf 8f3a 367a 58bc 41a8 aabc
00000330: d5af ee3c fdc1 38be f9da 443d 8d83 19bc
00000340: 39d9 d9bc a3dd 09be ded4 9f3d 26c9 b8bb
00000350: 2866 d3bd 39ad 103e 90ee 213d f142 253e
00000360: c7c8 053e 99de c3bd 3fc4 ef3d f6f2 aebd
00000370: 80a3 10bd 528c f2bc a10e d0bd 4874 073e
00000380: 71fe 183d b4e6 d43d 54fe aabd 92ef 013e
00000390: 731d f8bb 9ee9 48be 1a70 40bd 65bb 093e
000003a0: c8a4 153e 5f4b 04bd 3ded a0bd 24a3 adbc
000003b0: 9cca d1bb 96b2 893c a665 023e 8d80 623d
000003c0: 673d f33d 4deb 433e 8657 dfbc f8b5 973d
000003d0: 03d2 b83a ae61 213e 8667 bebd de37 6cbd
000003e0: d263 9abd 4dd3 77bc aef4 dc3d 6bef f7bd
000003f0: 80e7 da3d a684 a6bd 6411 2f3e c16a debc

fc2.bias f4 [32]
-0.085093364 0.13144884 0.030919623 0.15885282 0.046788342 -0.083568536 0.019506596 -0.036213767
0.08290251 0.07723587 -0.1276915 0.037070546 0.12834848 0.06254339 -0.03397819 0.10711484
-0.02794796 -0.057310864 0.049722064 0.10785122 0.020587178 3.1817384e-05 -0.027577026 -0.08130888
0.21716893 0.12593873 0.046008654 0.09416551 0.14628763 0.05325868 -0.04213333 -0.14119823
00000000: 6e45 aebd 869a 063e 264b fd3c 50aa 223e
00000010: 22a5 3f3d fb25 abbd 4ccc 9f3c e354 14bd
00000020: cbc8 a93d d72d 9e3d 90c1 02be 49d7 173d
00000030: c96d 033e c016 803d b72c 0bbd 065f db3d
00000040: 1ff3 e4bc ccbe 6abd 5da9 4b3d 1ae1 dc3d
00000050: 71a6 a83c a873 0538 37e9 e1bc 4585 a6bd
00000060: 8861 5e3e 15f6 003e 9273 3c3d d9d9 c03d
00000070: 6dcc 153e c625 5a3d 0094 2cbd 4596 10be

fc3.weight f4 [16, 32]
0.045676187 -0.086959906 0.088063166 0.06009201 -0.28922608 -0.1794757 -0.28890228 -0.081958
-0.053943086 -0.25665596 -0.30701125 0.21842872 -0.23193797 0.08727243 -0.01939383 0.15257636
-0.550278 -0.14820379 -0.14725937 0.1256573 0.051500693 -0.24615927 0.0013866664 -0.2513549
0.23404707 -0.037209813 0.14842786 0.09566306 -0.022282286 0.21045832 0.006947739 -0.058658756
-0.13580175 0.04397843 0.19748713 0.25531694 -0.18404326 -0.22208805 -0.02770048 -0.06462068
0.017601116 -0.2630486 -0.2797542 -0.077192366 -0.19419019 0.19545677 -0.20025386 -0.019604227
-0.47831455 -0.09593732 -0.018782353 0.059278835 0.09347109 -0.23291838 -0.09295637 -0.32498422
0.07998602 0.2480416 0.32091784 0.13135974 0.17907584 0.21757904 0.20067383 -0.03607599
0.016983801 0.15344754 0.21139158 0.013392386 -0.18053712 -0.22498232 -0.121634044 -0.20956537
-0.008035734 -0.18841948 -0.11339925 0.13200286 -0.31171066 0.2505792 0.0064851143 -0.185231
-0.14845204 0.0593008 0.043897785 0.1237596 0.12114936 -0.20101537 -0.20371361 -0.03558511
0.12583633 0.15591736 -0.022037797 0.21171613 -0.014638464 0.19478072 0.28207746 -0.015001887
0.18212162 0.1405637 0.093391754 -0.06986621 0.4144457 0.26201087 0.31586134 0.034249324
0.23949866 0.20513113 0.08120271 0.15215527 0.04492211 -0.22307922 -0.10742151 0.10976079
0.16107877 0.03730995 0.0017722007 0.027966646 -0.13786215 -0.13776575 0.13149041 0.20469314
-0.018407805 0.05602769 -0.33478162 -0.18249522 -0.10100974 -0.003314211 0.016334005 -0.027952515
-0.008840383 0.08735863 -0.16555808 0.10693347 0.17214985 0.15700947 0.10291316 0.017288018
0.057634193 -0.11034657 0.2633596 -0.017120885 0.42767468 0.0142656155 0.1906397 0.11584437
0.25532678 0.28862932 0.23700958 -0.19301182 -0.039354745 -0.21752776 0.085349545 0.11365242
0.1797044 -0.0054680994 -0.1429907 -0.16582672 -0.21916336 0.05772162 -0.20561868 0.009471309
0.123997256 -0.116521426 -0.10585412 0.10784679 0.057078034 -0.10579269 0.045602437 0.07641519
-0.16353022 0.0058313287 0.024935428 -0.04331672 0.15644325 -0.14438987 0.08168591 -0.113749914
-0.1461834 0.104628704 -0.0823525 -0.026289906 0.058951233 -0.15831454 -0.15131891 0.04483968
0.1266805 -0.040774647 0.118681416 0.029775202 0.0376634 -0.14919704 0.14044021 0.067382336
0.0333385 0.17097916 -0.14224604 0.0094623035 0.10274415 0.13822441 0.25106978 0.14586699
0.13153562 -0.018902887 0.08217204 -0.01376214 0.17907354 -0.25537986 0.2510035 0.074698694
0.1650945 0.1803722 0.16149345 -0.1659657 0.07971899 0.02049245 0.28484702 0.27551484
0.13149142 0.06902798 -0.1805229 0.024703402 0.06481461 0.06805734 -0.11219674 0.11464057
-0.07160006 -0.08076151 -0.08218198 -0.076774254 -0.40547064 0.03942932 -0.12600969 -0.3443858
-0.32278585 -0.1541655 -0.25655064 0.030069213 -0.2655995 0.08860817 -0.100965455 -0.033634342
-0.047437575 0.0365056 -0.08476135 0.121879175 -0.038050886 -0.25701755 -0.40823853 0.048994068
0.0413023 0.025893241 0.056000084 0.16501537 0.16288885 0.25258628 0.05772821 -0.043045945
00000000: f416 3b3d 0918 b2bd 765a b43d 0a23 763d
00000010: 7115 94be 7ac8 37be 00eb 93be 99d9 a7bd
00000020: 6df3 5cbd 6968 83be 9430 9dbe c7ab 5f3e
00000030: 2681 6dbe e3bb b23d cfdf 9ebc fa3c 1c3e
00000040: 05df 0cbf bcc2 17be 29cb 16be 4fac 003e
00000050: 64f2 523d 2d11 7cbe cec0 b53a 97b1 80be
00000060: 09aa 6f3e 5169 18bd 79fd 173e ffea c33d
00000070: 5789 b6bc 6382 573e dca9 e33b 2a44 70bd
00000080: 9d0f 0bbe ba22 343d 113a 4a3e e7b8 823e
00000090: d675 3cbe 0d6b 63be 1eec e2bc d957 84bd
000000a0: 3730 903c 4eae 86be f13b 8fbe 0817 9ebd
000000b0: cbd9 46be d225 483e 590f 4dbe 0b99 a0bc
000000c0: a5e5 f4be c97a c4bd 73dd 99bc 5dce 723d
000000d0: c56d bf3d 2882 6ebe e95f bebd 5564 a6be
000000e0: b6cf a33d 9efe 7d3e 584f a43e 2b83 063e
000000f0: a85f 373e 0acd 5e3e 717d 4d3e 6bc4 13bd
00000100: 9d21 8b3c 5a21 1d3e 0977 583e bd6b 5b3c
00000110: b9de 38be c461 66be 451b f9bd 4e98 56be
00000120: 50a8 03bc 09f1 40be de3d e8bd c22b 073e
00000130: 8a98 9fbe eb4b 803e 1581 d43b 32ad 3dbe
00000140: d003 18be 65e5 723d 2ace 333d ac75 fd3d
00000150: 281d f83d f9d6 4dbe 4d9a 50be b1c1 11bd
00000160: 3ddb 003e cda8 1f3e 9c88 b4bc 1dcc 583e
00000170: 2bd6 6fbc 9974 473e 756c 903e 7aca 75bc
00000180: 177e 3a3e eeef 0f3e 2d44 bf3d 0416 8fbd
00000190: 3a32 d43e 4a26 863e 94b8 a13e 0549 0c3d
000001a0: 233f 753e e50d 523e 9b4d a63d 97ce 1b3e
000001b0: 3f00 383d e16e 64be cfff dbbd 44ca e03d
000001c0: d5f1 243e 51d2 183d 3049 e83a 4f1a e53c
000001d0: bc2b 0dbe 7712 0dbe 6ca5 063e 149b 513e
000001e0: f7cb 96bc 4b7d 653d 7f68 abbe 07e0 3abe
000001f0: 32de cebd 3c33 59bb e4ce 853c acfc e4bc
00000200: 41d7 10bc 15e9 b23d 0f88 29be efff da3d
00000210: 0d48 303e 17c7 203e 23c4 d23d 9a9f 8d3c
00000220: d511 6c3d 62fd e1bd 12d7 863e 1941 8cbc
00000230: 2df8 da3e 54ba 693c 0e37 433e d03f ed3d
00000240: 31ba 823e 39c7 933e a4b2 723e e4a4 45be
00000250: 7132 21bd 99bf 5ebe becb ae3d 9ac2 e83d
00000260: 6e04 383e be2d b3bb 276c 12be 7bce 29be
00000270: 5c6c 60be 816d 6c3d b48d 52be 8d2d 1b3c
00000280: 46f2 fd3d c9a2 eebd 0bca d8bd c7de dc3d
00000290: a8ca 693d d6a9 d8bd 9fc9 3a3d 917f 9c3d
000002a0: 7774 27be bb14 bf3b 6245 cc3c df6c 31bd
000002b0: a932 203e f0da 13be f14a a73d b7f5 e8bd
000002c0: 1ab1 15be 9347 d63d 6da8 a8bd ee5d d7bc
000002d0: d976 713d 351d 22be 58f3 1abe d0a9 373d
000002e0: 88b8 013e 5103 27bd 3e0f f33d 20eb f33c
000002f0: f044 1a3d 1cc7 18be 8fcf 0f3e c0ff 893d
00000300: f38d 083d 2915 2f3e f2a8 11be c707 1b3c
00000310: 866b d23d b38a 0d3e 388c 803e 285e 153e
00000320: 46b1 063e 3ada 9abc d149 a83d 997a 61bc
00000330: 0e5f 373e 26c1 82be 8883 803e a1fb 983d
00000340: 880e 293e 7db3 383e 8a5e 253e eaf2 29be
00000350: b643 a33d c8df a73c 78d7 913e 4810 8d3e
00000360: b0a5 063e 8b5e 8d3d ffda 38be ca5e ca3c
00000370: 86bd 843d a661 8b3d 68c7 e5bd adc8 ea3d
00000380: 0da3 92bd 4a66 a5bd 074f a8bd d23b 9dbd
00000390: d999 cfbe a380 213d af08 01be 5653 b0be
000003a0: 3044 a5be 90dd 1dbe 9b5a 83be b653 f63c
000003b0: a8fc 87be 3378 b53d fac6 cebd 2ac4 09bd
000003c0: e74d 42bd e586 153d 5c97 adbd ca9b f93d
000003d0: 3fdb 1bbd ce97 83be a404 d1be 01ae 483d
000003e0: 9a2c 293d 101e d43c 5860 653d caf9 283e
000003f0: 56cc 263e fd52 813e 6a74 6c3d f250 30bd

fc3.bias f4 [16]
0.24334052 0.015944432 0.24754722 0.13063765 0.12914664 -0.19519943 -0.026968623 -0.03585743
0.06376002 -0.13948087 0.07412297 -0.03522331 0.01179148 -0.13353086 0.20138139 0.062299807
00000000: 422e 793e e69d 823c 057d 7d3e e0c5 053e
00000010: 043f 043e 5ce2 47be 4ded dcbc 3edf 12bd
00000020: 9d94 823d 13d4 0ebe c9cd 973d 5146 10bd
00000030: 0d31 413c 50bc 08be ec36 4e3e 152e 7f3d

fc4.weight f4 [1, 16]
0.32954004 0.15056628 0.16735362 -0.1691199 -0.12594654 -0.0631518 -0.3255737 0.43299097
-0.29969314 0.13970397 -0.224819 0.13945009 0.32714522 -0.362368 0.32805872 0.13491297
00000000: 79b9 a83e 0c2e 1a3e bf5e 2b3e c42d 2dbe
00000010: 21f8 00be bb55 81bd 99b1 a6be feb0 dd3e
00000020: 6171 99be 8f0e 0f3e f436 66be 01cc 0e3e
00000030: 947f a73e 4c88 b9be 50f7 a73e a026 0a3e
